src/pms/train/models/discriminator_state_dict.pth (torch, 12914 bytes, 5 tensors)

model.0.weight f4 [64, 5]
00000000: b39b 80c0 5296 ecbf d3ea e940 122c 5d3e
00000010: 66de 5f3c 3ff3 8740 687b afbf 5db7 bfbe
00000020: 2aba 093e 35bb 6fbe 7a72 9bc0 9d2d f93f
00000030: 6e52 bfbe 33f2 2dbf b131 6fbd 7e14 8b40
00000040: cbeb 27c0 c46b c53f 58b4 bf3d 1ee4 cf3e
00000050: 2d37 9ac0 91e6 e93f 3cb1 223f a60e 8a3f
00000060: b4a5 67bd 31f2 7440 ed04 13c0 5ce8 883f
00000070: 7940 ec3e 0b94 0cba ca07 8040 f9a7 afbf
00000080: d8e1 903f d4d4 6e3e e913 3fbe 3616 7fc0
00000090: b37a c33f 16a8 8dbe a336 c9bf fe4a bb3c
000000a0: a744 9a40 cbb8 29c0 ea32 1e3f 6aa9 313f
000000b0: 95f7 cabe db00 90c0 aa6e c33f 5555 0a3f
000000c0: c1f8 1f3f c5d0 4cbd e9c0 81c0 1c49 1d40
000000d0: 0390 7fbf 58b9 8cbf ea6e ae3c 307b 95c0
000000e0: efea 933f 695b 5e3f 73ed 603f 7ba5 0ebd
000000f0: 6cf6 e6bf 5701 4240 04ff aabd ffb8 bcbe
00000100: 9bc9 98be 3b04 55c0 681d af3f 50e5 af3e
00000110: 2981 de3e 6052 a9be d1d6 6cc0 f252 773f
00000120: 47fd ebbe 345f 2abf c452 a2be 14ac 9240
00000130: 9396 18c0 4a06 0b3f c31d 263f bd8b 013c
00000140: 115a 52c0 65e0 dc3f 4ea2 a6be 63f9 29bf
00000150: 5eee c3be f71d 5240 dfaa f3bf 32aa c03e
00000160: ad47 0f3e c47a f03d 75cb 8ec0 dbd8 8940
00000170: cab7 22c0 315d a0be a883 663d 54e8 8240
00000180: d0b5 18c0 e275 4440 e98f 5a3f ba95 b23e
00000190: 549b 8f40 6f01 a1bf 8adc 2fbf fdad 523e
000001a0: 33ac 68be 5d19 6540 6156 2cc0 db8e e33f
000001b0: 04d0 be3e cc9a 59be 06a9 8240 4c7d 91bf
000001c0: 68da ffbe 3340 633e 7d15 0d3e 8cb4 9d40
000001d0: 4600 c6be c2a6 62c0 0ea7 fcbe d7d3 babe
000001e0: 268b a440 69cb 0fc0 afee 8f3e 6d04 b23e
000001f0: 5141 e3be 9e4c 88c0 43d2 c43f 723e e0bf
00000200: 8dbe e0bd a6b3 b43e cdf8 8ac0 2fcc b33f
00000210: 726d 993f 359e a33f 3ed4 39bc fc63 5f40
00000220: 3cdc f4bf 6057 4fbf 75cd 43be 8c62 e23e
00000230: 95c0 7bc0 e12f 0c40 6600 d8bf 2a1f 703f
00000240: d15f b739 3b79 9240 893e 9bbf 5a77 063e
00000250: 43e0 123f 2ae6 03bf 6ae9 92c0 913b 0740
00000260: 448f 95bf 08e8 79bf 3f56 87bd b3c5 4ac0
00000270: 364b 0040 d8d0 76bf 9710 14bf 2b15 e93e
00000280: 738e 95c0 b32f e23f 2a9d c43e ea52 db3e
00000290: 2a32 a53e 7be1 53c0 5422 cd3f d287 513f
000002a0: ca60 92be 925d 06bf a435 6940 4a24 ddbf
000002b0: 9555 05bf 0797 1fbe f8d6 03bf 1ab0 05c1
000002c0: 8e13 a240 7829 cfc0 07a5 a73b 2159 ddb7
000002d0: adec 82c0 befe 2340 6157 eebf 8e72 dcbe
000002e0: 1329 8b3e 2740 33c0 373a c23f 27c5 f1be
000002f0: 185e 82bf 0b9b ae3e a4ed 1d41 1fc3 d3c0
00000300: a5dd 2f41 7907 13bf e0d5 02b5 ea3e 6bc0
00000310: c1e8 1540 27f1 29bf 46d3 a0be 3e4d 003f
00000320: 2adb 97c0 8cd7 f13f 9fce bbbf 1f4c aabe
00000330: bf38 cf3e 5db8 9640 398a cfbf 9fa2 f43f
00000340: 7738 893e cb40 b43e 4cf7 42c0 8920 df3f
00000350: fa88 c1bf 338b 733f e943 ea3d e01f 4fc0
00000360: bcc0 bc3f 49ae 263f 564e 28bf 9ccb bf3e
00000370: f921 7540 f709 03c0 f61d e13f b031 623e
00000380: 0251 e6be 3f11 8a40 73cf 0bc0 08a6 e4be
00000390: 8747 f6be 3dcd a03b 9b2a 8440 333e a0bf
000003a0: 3a48 3d3f 1160 a9be 9348 bf3b c6b4 8840
000003b0: 208d 01c0 5ac3 c33f 3bd8 a93e a767 d73e
000003c0: 780b 9a40 91c1 0cc0 018e e43f b93a 273f
000003d0: 5a6e d13e 4f41 9240 8e73 13c0 f8e1 ae3f
000003e0: 773a 453f 39b2 ccbe 15cf 8fc0 6dd3 2d40
000003f0: 6b9e 33c0 38f0 5ebe b2ab bcbd 6981 90c0
-4.0190063 -1.8483374 7.309915 0.21598843 0.013663864 4.248443 -1.3709536 -0.37444583
0.13449922 -0.23411258 -4.857724 1.9467045 -0.37367576 -0.6794769 -0.058397 4.3462515
-2.6237667 1.5423512 0.0936057 0.40603727 -4.8192353 1.8273488 0.6355169 1.078572
-0.05655451 3.8272822 -2.2971756 1.069591 0.4614294 -0.00053626363 4.000951 -1.3723136
1.1318922 0.23323375 -0.18659939 -3.9857306 1.527182 -0.27667302 -1.5719799 0.022862907
4.8208804 -2.6519039 0.6179644 0.6939913 -0.39642015 -4.5001044 1.5268147 0.54036456
0.62488943 -0.050003786 -4.0547986 2.4575872 -0.9982912 -1.0994062 0.021293122 -4.6712875
1.1556071 0.8685823 0.8786232 -0.034825783 -1.8043952 3.0313318 -0.083494216 -0.3685989
-0.29841313 -3.3283832 1.3680849 0.3435464 0.43457916 -0.3307066 -3.7006114 0.9661094
-0.46091673 -0.6655152 -0.3170377 4.5835056 -2.3841903 0.5430647 0.6488916 0.007906851
-3.2867472 1.725598 -0.32545704 -0.6639616 -0.38267797 3.283079 -1.9036521 0.3762985
0.13992186 0.11742166 -4.462336 4.3077216 -2.5424676 -0.313211 0.0562779 4.0908604
-2.386097 3.069695 0.8537584 0.34879857 4.487711 -1.2578562 -0.6869589 0.20574184
-0.22721939 3.579673 -2.6927722 1.7777971 0.37268078 -0.21250457 4.0831327 -1.1366363
-0.49971318 0.22192459 0.13777728 4.9282894 -0.38672084 -3.541428 -0.49346203 -0.36489746
5.141986 -2.2467902 0.2811179 0.34769002 -0.4438577 -4.2593527 1.5376667 -1.7519057
-0.10973845 0.3529331 -4.342871 1.4046687 1.1986525 1.2782656 -0.011342106 3.4904776
-1.912971 -0.809927 -0.19121344 0.4421581 -3.9336293 2.1904223 -1.6875122 0.9379755
0.0003497587 4.5772986 -1.2128459 0.13131467 0.57373446 -0.5152308 -4.590993 2.1130106
-1.1684346 -0.97619677 -0.06608247 -3.1683166 2.0045905 -0.9641242 -0.57837814 0.45523962
-4.673639 1.7670807 0.38401157 0.42836696 0.32264835 -3.3106372 1.6026101 0.8184787
-0.2858947 -0.52486527 3.643899 -1.72767 -0.5208371 -0.15584956 -0.5149989 -8.355494
5.064887 -6.473812 0.0051161083 -2.6386757e-05 -4.091391 2.5624232 -1.8620416 -0.43056148
0.27179775 -2.8007905 1.5174016 -0.47220728 -1.0184965 0.34102663 9.870518 -6.6175685
10.991612 -0.5743328 -4.8740003e-07 -3.675715 2.3423312 -0.66383594 -0.3141119 0.5011786
-4.7455034 1.8893905 -1.4672431 -0.332612 0.4047298 4.7100053 -1.6214057 1.9112128
0.26800892 0.35205683 -3.0463438 1.7431804 -1.5119927 0.95134276 0.11438734 -3.2363205
1.4746318 0.6510969 -0.6574453 0.3746003 3.8301985 -2.0474832 1.7587268 0.22089267
-0.4498368 4.314605 -2.1845367 -0.44657922 -0.48101446 0.004907279 4.130201 -1.2518982
0.73938334 -0.33081105 0.005837509 4.272067 -2.0242386 1.5293992 0.33172783 0.42071268
4.8139 -2.1993144 1.7855836 0.6532398 0.40904504 4.5704722 -2.303928 1.366271
0.77042335 -0.39979723 -4.4940286 2.7160294 -2.806544 -0.21771324 -0.09212436 -4.515797

model.0.bias f4 [64]
00000000: c79c 493f 213c c5be 0094 01bf f7b6 0f3f
00000010: 54fa 0c3e bb15 3abf 4a2f 9dbd b6a2 54bd
00000020: 5fe5 053e e8e6 ab3d bcb2 1a3f 5b06 9b3d
00000030: 9956 013e 95af aebe 57fe 093e c777 103f
00000040: 4a86 85bc 7a94 99be 68e2 7d3f 8db0 233e
00000050: f812 de3e 7ca6 b13e 0a5a 1a3f 9bd4 0b3f
00000060: a660 4a3f eddb 8a3d 045c 4b3e 621d e6bd
00000070: 8332 9ebe 4570 9ebe 62c6 ef3e ee45 babe
00000080: 26c8 bb3e 19bc 6ebe 6cbe 8cbe 4340 dcba
00000090: 8587 033f f531 aabd 0102 3f3e 13cd 7fbe
000000a0: e3c4 b43e 3858 aebd e001 eabe 5e75 08bf
000000b0: 441e d93d bae4 1ebf a2c9 f5be 6ef7 d7bd
000000c0: 6255 263d 88b3 983e 215e 4e3f c310 203e
000000d0: e771 2c3e 437e 263e 594c 1b3e 2fd0 31bf
000000e0: 8066 1dbf c784 633e 4c4d f2be 33cf 97be
000000f0: 326e 913e 496c ba3e 9888 9cbe 9f6b f83d
0.7875485 -0.38522437 -0.50616455 0.5613856 0.13767368 -0.7268941 -0.07675035 -0.051912986
0.1307578 0.08393651 0.60428977 0.075695716 0.1263069 -0.34118333 0.13475929 0.56432766
-0.016299386 -0.2999609 0.99173594 0.15985318 0.43373847 0.3469733 0.6029364 0.54621285
0.79053724 0.06780229 0.1985932 -0.11236073 -0.30897912 -0.3094503 0.46831042 -0.36381477
0.3667614 -0.23313941 -0.2748903 -0.001680382 0.5137866 -0.0831031 0.18653108 -0.24980573
0.35306463 -0.0851292 -0.45704556 -0.5330409 0.10601476 -0.6206776 -0.48005396 -0.1054524
0.04060877 0.2982447 0.8061238 0.15631394 0.16840325 0.16259103 0.15165843 -0.6945829
-0.6148453 0.2221862 -0.47324598 -0.29650268 0.28404385 0.3641074 -0.30572963 0.12129902

model.2.weight f4 [32, 64]
00000000: 562a 423d 36db 78be 1094 893e 3903 343e
00000010: f36c 8d3e 53e3 2dbf a04b c3bd 8b62 6b3e
00000020: 59bd edbb bf1a 303e 2a8d e13e 3dad 8c3e
00000030: ef75 fbbd 6131 ccbd 0a03 63be b12d c4bd
00000040: 277b 65be 1b45 a0be 6bde 503c 9ae9 473e
00000050: 5ac5 54bc 2fa4 95bd 395e 2a3e 16d1 a5be
00000060: 2b74 e0bd 0b2e d13d 6b06 a43d 7a4b 463e
00000070: d2ff 4c40 a796 25be a0e9 ed3e 9273 153e
00000080: 8288 403e 50c5 e8be 1396 22bf 4575 55c1
00000090: 9672 943e d4fd 6f3e 5ccc 0bc1 8424 9d3e
000000a0: 1156 ab3e 1750 33bd 21bb c93e 4044 a23d
000000b0: 0150 9fbb 4d36 febe e293 b4be 9cf0 74bc
000000c0: f18f 00bd 3a22 1d3d 8dfc 6b3c a187 713e
000000d0: 257f 103d 83fe f83d 017d b1bd d073 88bd
000000e0: 36cb 8cbe 6764 903e 74fa 8cbe d040 f83d
000000f0: ef0e 6abd 3b2c 773d d574 583e 618a 773c
00000100: db64 6c3d 10ce 0d3d 4650 08bf 6d51 0e3e
00000110: 6e48 efbd 6430 413e cc29 033e 189e 29bf
00000120: 2523 813d 1213 f4bd 84ae 04bf 9e3c 44be
00000130: b215 3abe c4a5 8dbe a5c3 06be 9919 e43e
00000140: 800c 3abe bab3 543e 0f4c fdbd 2fff 2f3d
00000150: 2534 403e cb08 203e e46a 503e fda3 11bd
00000160: dacf 293e b8b0 f8bd 8bf0 a8bd 1c59 b73b
00000170: 5440 9ebf 3e57 1dbc cb0e 46bf 4ac2 36be
00000180: 66f8 a1bc b7aa c0bb aa36 a93d ada8 5d41
00000190: 3a8b 18be 942f 82be 0b86 b040 8c8d a7bd
000001a0: 987d 473b 98c5 163e c57e 56be 050d 2ebe
000001b0: e509 2a3e a878 d33e c678 953e 6715 653d
000001c0: 4d6a 393e e7d8 273e 78bf c73d 1916 13be
000001d0: 094a 023d ada6 0d3e 27f5 363e 30e8 113c
000001e0: 3137 853d 8266 f63c 4e92 533e f008 95be
000001f0: 651c 3dbe 02bd 433d e5cf 7bbe 1398 463e
00000200: 4c94 1c3e a2de 243d a042 e43d abd0 e53c
00000210: 5448 943e 9540 4abf cf8e 13be 0c9b a13e
00000220: a758 cebd fcc6 893e e65c f13e 7fb9 4e3e
00000230: 0a20 a43d a7d6 453e ae05 cebd de9e 62be
00000240: 4d6b d83d a22a 05bf e9c0 8f3e 6e76 133e
00000250: 5ead 713d 16a4 003d b840 fa3c 263f 883b
00000260: de43 213d c0e6 623e 674e 533e 2f7b 9cbc
00000270: 58dd 1b40 2755 7d3d f6df 2e3f 1379 cbbd
00000280: e967 313e ceb7 123e 3880 2abe 0b5c 59c1
00000290: c7b4 4b3e 78a9 85bd 3846 f4c0 e24c 0c3e
000002a0: a365 f93d adeb 10be b196 ab3e ade8 71be
000002b0: 81fa 6fbd 6a6a 7dbf 9b9f 78bf 65e5 f0bc
000002c0: 1621 453d cbd9 f2bc c616 a83e cd0d 4f3e
000002d0: 330e c7bc 7fad af3d a6ab 7cbd de4b b8be
000002e0: 4937 06bf 8a44 403e 7096 e4be 5b31 0f3c
000002f0: ad27 a03d 31af 433e 7e92 263e c41f 20be
00000300: 45d8 d93d 3168 4cbe 1c94 eb3e a136 66bd
00000310: c9bd c5bd 9121 20bf 4c5b 63be 85a7 553f
00000320: 5e55 98be 9cbe 133d d433 263f a6b3 bbbd
00000330: 91c7 a23e 1b24 9dbe 0c1e 373e d634 05bf
00000340: a29e 543e 980b f3be 4dc5 cb3e b041 9dbe
00000350: 673f 003e d077 0e3d 3b4e fc3d 9828 1e3e
00000360: 2cb5 893c bd39 e0bc 0b51 9ebd 5ff5 0f3e
00000370: 5f96 52c0 c031 04bf 13b5 383f d022 593c
00000380: 2d0b 3f3d c988 823e 9853 bc3c edb4 5cc1
00000390: f321 873e 16bb 9a3e 7247 9ec0 c59c f83d
000003a0: f59e 313e f93f a0be e5c7 2dbf 1701 503e
000003b0: a976 3cbc a084 b4be 6035 b4be 3d0d 96be
000003c0: 85d4 8cbe e56b 12be 5330 ba3e 30e1 e2bd
000003d0: cd7e da3d b3c1 2bbe 2196 52bd bfca 8bbd
000003e0: adba ccbe 78e0 5e3c c961 0fbf 62cd b63e
000003f0: 4635 8f3e 49ff 853d 4d73 ecbe 3e70 b2be
0.047403656 -0.24302372 0.26870775 0.17579354 0.27622184 -0.67924994 -0.09535909 0.2298681
-0.007255238 0.17197703 0.44053012 0.2747592 -0.122783534 -0.09970356 -0.22169128 -0.095790274
-0.2241026 -0.31302723 0.012748341 0.19522706 -0.012986505 -0.07306706 0.16637506 -0.32386082
-0.10959657 0.1021386 0.08009037 0.1936473 3.203114 -0.1617075 0.46467304 0.14594868
0.18802074 -0.45463037 -0.63510245 -13.34113 0.28993672 0.23436671 -8.737392 0.30691922
0.334641 -0.04377755 0.3940058 0.07923174 -0.004861832 -0.49650803 -0.35269076 -0.014949944
-0.031387273 0.03836272 0.0144034745 0.23586895 0.035277504 0.12157919 -0.08666421 -0.066627145
-0.27498788 0.282016 -0.2753483 0.12121737 -0.057143148 0.060344916 0.21138318 0.015108676
0.05771337 0.034620345 -0.5324749 0.13898249 -0.11683737 0.18866116 0.12808913 -0.66256857
0.063055314 -0.119177 -0.5182879 -0.19163749 -0.18172339 -0.27665532 -0.1316057 0.4455078
-0.18168831 0.20771685 -0.12368023 0.04296797 0.18769892 0.15628354 0.20353276 -0.035556782
0.16583195 -0.121430814 -0.08249005 0.0055953395 -1.2363381 -0.00960332 -0.7736632 -0.17847553
-0.019771766 -0.005879726 0.082623795 13.853681 -0.1489686 -0.25426924 5.5163627 -0.08181295
0.003043985 0.14723814 -0.20946796 -0.16997154 0.16605337 0.4130299 0.29193705 0.055928614
0.18106957 0.16391335 0.09753317 -0.14363898 0.031808887 0.13833113 0.17866956 0.0089054555
0.065046676 0.030078176 0.2066128 -0.2910838 -0.18467863 0.047787674 -0.24591024 0.19393949
0.15290946 0.04025138 0.1114552 0.028053602 0.28961432 -0.79004794 -0.14409946 0.31563604
-0.10075503 0.26909626 0.47141188 0.20187949 0.080139235 0.19320165 -0.10059677 -0.22130916
0.10567341 -0.5201818 0.28076866 0.14400646 0.059003226 0.031406485 0.030548438 0.0041579185
0.039371364 0.22158337 0.20635377 -0.019101707 2.4353848 0.061848786 0.6831049 -0.099352024
0.17324795 0.14327928 -0.16650474 -13.584971 0.1989318 -0.06526464 -7.6335716 0.13701203
0.12177589 -0.14152403 0.33513406 -0.23623915 -0.05858851 -0.989905 -0.9711854 -0.029406259
0.048127256 -0.029644867 0.32829875 0.20220108 -0.024298763 0.08578014 -0.061687134 -0.35995382
-0.5242811 0.18776146 -0.44646025 0.008739795 0.078200676 0.19109799 0.1626682 -0.15637118
0.10636953 -0.19961621 0.46011436 -0.056204442 -0.09655339 -0.6255122 -0.22202796 0.8345874
-0.2975263 0.03607045 0.64922833 -0.091651246 0.31792882 -0.3069161 0.17882556 -0.52033746
0.20763639 -0.47469783 0.39798966 -0.30714178 0.12524186 0.03478223 0.12319609 0.15445173
0.016810022 -0.027371282 -0.077303015 0.14058445 -3.290428 -0.5163841 0.721513 0.013252929
0.046641517 0.25494984 0.02298908 -13.794171 0.2639309 0.3022086 -4.9462214 0.121392764
0.17345794 -0.31298807 -0.6788314 0.20312916 -0.0115029 -0.35257435 -0.35196972 -0.29306975
-0.2750589 -0.14298971 0.36364993 -0.11078107 0.106687166 -0.16773109 -0.051412705 -0.0682578
-0.39986172 0.013603322 -0.56008583 0.3570357 0.27970332 0.065428324 -0.46181718 -0.3485126

model.2.bias f4 [32]
00000000: 16e6 ba3b b4bb b13d 14a5 983e 5a37 513e
00000010: a667 803d 190a 5a3d b310 b53d 18f0 9a3d
00000020: 3e76 a63e a835 d83e b8fd 34be abbb a73e
00000030: 03a0 bb3d 7200 9abb 4794 d23d e215 703d
00000040: 537c a53e 68cd 923e 278f 413e cf9c 6e3e
00000050: 9ed2 673e af83 773e 40e8 563e 0b9a ce3e
00000060: 942f 113e 68ce 05be 2a5e 583e 38c9 183e
00000070: b09a 4e3e 116f e73c 2bd2 af3d 7eea dd3c
0.005703698 0.0867838 0.29813445 0.20431271 0.06269769 0.053232286 0.08841076 0.075653255
0.32512087 0.42228436 -0.17674911 0.32760367 0.09161379 -0.00469976 0.10282188 0.05861462
0.32321414 0.28672338 0.18902265 0.23302005 0.22638938 0.24171327 0.20987034 0.403519
0.14178306 -0.13067019 0.2112967 0.14920509 0.20176196 0.028251203 0.08585008 0.027089354

model.4.weight f4 [1, 32]
00000000: bcc6 713f 6379 eebf 1031 603f 9a3e d53f
00000010: 94c2 84c1 499a 1040 8ddc 06c1 9f96 1840
00000020: e15a 9bbf 9eba 693f 69eb f7c0 c217 a6bf
00000030: 97d3 ccbf 627e 7fbf 8ac7 b3bf 5834 eebf
00000040: 2a9b 493f 5ae6 93bf f3ac 11c0 04df f8bf
00000050: 50b9 613f 0727 8dbf 1a23 81c1 e96f 653f
00000060: 3526 bfbf 88fd 52c1 e630 383f ed3e 89c1
00000070: 4f40 653f c14b 55c1 2943 a240 08c5 afc0
0.9444387 -1.8630794 0.87574863 1.665973 -16.595009 2.2594168 -8.428845 2.3841932
-1.2137109 0.9130038 -7.7474866 -1.2976 -1.6002072 -0.9980222 -1.404527 -1.8609724
0.78752387 -1.1554673 -2.276181 -1.9443059 0.8817339 -1.1027535 -16.14214 0.89623886
-1.4933535 -13.186897 0.71949613 -17.155725 0.8955125 -13.330995 5.0706983 -5.4928017
