src/pms/train/models/generator_final.pth (torch, 75224 bytes, 5 tensors)

model.0.weight f4 [64, 150]
-0.13620569 0.21014412 0.33526403 -0.15311335 -0.090138115 0.7007622 0.03229918 -0.019197557
0.46342546 0.16472188 -0.3006398 0.29918686 -0.061536554 0.065190256 -0.09900754 -0.45769364
0.47184488 0.036080565 0.42059276 -0.4459326 -0.24983735 -0.25533918 0.49044633 -0.31181815
0.4457178 0.32863405 -0.2517181 -0.34308884 0.6516001 0.05343349 -0.24897102 0.04301137
-0.16537836 -0.20408376 0.38728097 -0.060364135 0.22969596 0.09341523 -0.30793756 -0.42011267
0.13744886 -0.060098514 0.45692256 -0.014141685 0.10843287 0.11883873 -0.1642263 0.083871506
-0.46854123 -0.013737758 -0.0869008 -0.16553923 0.2922577 -0.37063998 0.06639967 0.36081815
-0.2270625 0.2635592 -0.084557734 -0.006013294 -0.10402244 0.15414582 -0.15391818 0.13251016
0.47921377 0.3137174 0.020422043 -0.19276519 0.006407088 0.13878347 0.43234164 -0.08157195
0.1206277 0.39240405 -0.43182623 0.002152789 -0.0026345607 -0.0901525 0.08840838 0.24209456
-0.4347203 -0.24492575 -0.29305378 -0.33316004 -0.29106367 -0.014804557 -0.58567035 -0.057561677
-0.7194609 -0.21728593 -0.3232653 0.18934964 -0.5583592 0.47341803 0.28791445 0.58158964
-0.042238303 0.27886873 0.0133951055 -0.12673911 0.14937048 0.06690371 0.011067265 -0.2980586
0.6510557 -0.40865555 -0.35041556 0.043266706 0.028514475 -0.019636609 0.1256289 -0.1871085
0.12433086 0.46940544 0.0910621 -0.057969164 0.054477565 -0.025441077 -0.0039410125 -0.38834646
0.39615375 0.20841834 -0.4458901 0.5861505 0.08785339 -0.12241415 0.036099944 0.51688534
0.0649674 -0.27888963 -0.1748728 -0.0034342983 0.57421553 -0.20018569 0.18564025 0.28647503
-0.4989038 -0.19562049 0.37313128 0.33480704 -0.017734671 -0.49443558 -0.1523551 0.15484615
-0.42832708 0.0244359 0.15144558 0.35772312 -0.101806514 -0.26172987 -0.63267213 -0.11730245
-0.16722678 -0.25220057 -0.5408597 -0.23837581 0.40913662 -0.34262902 -0.24189836 -0.35294604
0.7507062 0.13103878 -0.031230144 -0.360708 -0.08397097 -0.06213153 0.73087054 0.31712693
0.110735506 0.19289479 0.30207196 0.27899557 0.41487655 0.2086179 -0.033709105 -0.24243408
0.1196586 -0.8114495 0.3154406 0.74024624 -0.27467054 -0.4493932 -0.29319912 0.49855214
-0.4238686 -0.48251283 -0.34309906 -0.36187777 0.5279781 0.33405998 -0.017844684 0.49813536
-0.00064197555 -0.008099212 0.20472962 0.51661664 0.15915413 -0.37691584 -0.18294379 0.40442607
-0.04693595 -0.36924082 0.0992835 -0.0064740707 -0.44648907 -0.15450239 -0.26857448 -0.0084369555
-0.16221909 -0.7540731 -0.056819003 -0.12532066 -0.7338887 -0.36262426 -0.049941074 -0.649416
0.14596464 -0.47074383 0.14562266 0.0064947433 -0.13535956 -0.15752058 0.54611117 0.100150004
0.3051236 0.101145566 -0.037282504 -0.3873885 -1.0761116 0.030898424 0.06610293 0.5220831
0.11788195 0.2123704 0.28236288 -0.24715248 -0.14682804 0.31204328 0.3320645 -0.32823092
0.56394184 -0.5119683 -0.21213809 0.12243183 -0.48072267 0.053149864 -0.6685605 0.684371
-0.24594785 0.08545546 -0.17702743 0.2724696 -0.048577297 0.22537209 0.29856896 0.4692936
00000000: 8179 0bbe 0530 573e baa7 ab3e bfc9 1cbe
00000010: 559a b8bd 2765 333f 254c 043d 3244 9dbc
00000020: 1a46 ed3e daac 283e 76ed 99be 052f 993e
00000030: c10d 7cbd 7882 853d 77c4 cabd d256 eabe
00000040: a795 f13e 37c9 133d ef57 d73e 4751 e4be
00000050: 5dd5 7fbe d1bb 82be c81b fb3e a1a6 9fbe
00000060: 2035 e43e b942 a83e 32e1 80be 57a9 afbe
00000070: 44cf 263f 13dd 5a3d 42f2 7ebe b12c 303d
00000080: f258 29be 55fb 50be b149 c63e 6240 77bd
00000090: 6b35 6b3e 7c50 bf3d fea9 9dbe 0219 d7be
000000a0: 65bf 0c3e dc29 76bd c1f1 e93e 87b2 67bc
000000b0: 0d12 de3d b861 f33d f02a 28be d3c4 ab3d
000000c0: a3e4 efbe 5514 61bc 0cf9 b1bd 1e83 29be
000000d0: cda2 953e 86c4 bdbe 8dfc 873d 28bd b83e
000000e0: 1283 68be 3bf1 863e 9b2c adbd 2b0b c5bb
000000f0: b809 d5bd 67d8 1d3e ba9c 1dbe beb0 073e
00000100: 825b f53e 919f a03e 214c a73c 3d64 45be
00000110: 8df2 d13b 411d 0e3e e25b dd3e 320f a7bd
00000120: a80b f73d 2fe9 c83e 5418 ddbe ce15 0d3b
00000130: 98a8 2cbb e0a1 b8bd 740f b53d a3e7 773e
00000140: a993 debe d1cd 7abe 250b 96be f493 aabe
00000150: 4c06 95be d08e 72bc 7eee 15bf cbc5 6bbd
00000160: 972e 38bf 3480 5ebe 0883 a5be dfe4 413e
00000170: a1f0 0ebf d963 f23e 8669 933e 0fe3 143f
00000180: 1202 2dbd e2c7 8e3e 2577 5b3c e6c7 01be
00000190: 93f4 183e d004 893d 7953 353c 239b 98be
000001a0: 96ab 263f 4d3b d1be ab69 b3be 6e38 313d
000001b0: 3097 e93c f4dc a0bc dda4 003e 5f99 3fbe
000001c0: 2ea1 fe3d e955 f03e c47e ba3d 1371 6dbd
000001d0: de23 5f3d ce69 d0bc 9c23 81bb 59d5 c6be
000001e0: aad4 ca3e 9e6b 553e b54b e4be f60d 163f
000001f0: 7aec b33d 45b4 fabd 89dd 133d 9952 043f
00000200: a10d 853d 9fca 8ebe db11 33be f711 61bb
00000210: caff 123f 7afd 4cbe 7a18 3e3e dbac 923e
00000220: 5270 ffbe bd50 48be 100b bf3e d46b ab3e
00000230: 4d48 91bc a926 fdbe fa02 1cbe fd8f 1e3e
00000240: b04d dbbe cc2d c83c 8d14 1b3e 7c27 b73e
00000250: ef7f d0bd 7501 86be cdf6 21bf 443c f0bd
00000260: 7f3d 2bbe 6f20 81be c875 0abf ca18 74be
00000270: 5b7a d13e 126d afbe 34b4 77be 58b5 b4be
00000280: 482e 403f 082f 063e 5cd6 ffbc b8ae b8be
00000290: f9f8 abbd a27d 7ebd 551a 3b3f 765e a23e
000002a0: 4cc9 e23d 3686 453e 2da9 9a3e 82d8 8e3e
000002b0: b36a d43e ee9f 553e 8f12 0abd a440 78be
000002c0: 910f f53d 28bb 4fbf 6e81 a13e c780 3d3f
000002d0: 9ea1 8cbe de16 e6be 321e 96be 3a42 ff3e
000002e0: 4e05 d9be ec0b f7be aeaa afbe 0b48 b9be
000002f0: 9329 073f e909 ab3e 042f 92bc 990b ff3e
00000300: 404a 28ba 8fb2 04bc a4a4 513e fd40 043f
00000310: 4df9 223e 1dfb c0be 9e55 3bbe ef10 cf3e
00000320: e93f 40bd 220d bdbe 2655 cb3d 7124 d4bb
00000330: 379a e4be e035 1ebe 9882 89be 283b 0abc
00000340: c31c 26be ef0a 41bf 0bbb 68bd 0f54 00be
00000350: 21e0 3bbf e3a9 b9be 038f 4cbd 2140 26bf
00000360: c177 153e 5605 f1be 1b1e 153e dbd1 d43b
00000370: b29b 0abe 134d 21be f1cd 0b3f 721b cd3d
00000380: 2939 9c3e 6825 cf3d 8ab5 18bd c957 c6be
00000390: 06be 89bf b11e fd3c f960 873d 3da7 053f
000003a0: 186c f13d a077 593e de91 903e 8a15 7dbe
000003b0: 175a 16be 23c4 9f3e 5c04 aa3e e20d a8be
000003c0: 7e5e 103f 5b10 03bf ba3a 59be 8abd fa3d
000003d0: 4821 f6be acb3 593d c826 2bbf f032 2f3f
000003e0: c1d9 7bbe 4603 af3d ae46 35be 2381 8b3e
000003f0: fdf8 46bd f1c7 663e 08de 983e 4047 f03e

model.0.bias f4 [64]
-4.3049183 -4.3376584 -4.216195 -4.347873 -4.2904296 -4.421684 -4.3375435 -4.055546
-4.434296 -4.528799 -4.335607 -4.2191834 -4.1979876 -4.20907 -4.3316703 -3.9666085
-4.3616066 -3.9427853 -4.135498 -4.802678 -4.1800585 -4.122944 -4.0677924 -4.386321
-4.493616 -4.3506346 -4.761216 -4.3710113 -4.2172384 -4.5201283 -4.3387427 -4.3856726
-4.318492 -3.9566762 -4.229176 -4.162108 -4.3242335 -4.2788596 -3.9662204 -4.5443554
-4.425875 -4.0372224 -4.189325 -4.563862 -3.717706 -4.2837777 -4.3879433 -4.318687
-4.1895065 -4.2067585 -4.4832306 -4.1203876 -4.2768083 -4.6329174 -4.1127825 -4.4983344
-4.444068 -4.4031506 -4.2349157 -4.4419937 -4.5551925 -4.509724 -4.526045 -4.420733
00000000: e4c1 89c0 19ce 8ac0 12eb 86c0 c721 8bc0
00000010: 334b 89c0 6f7e 8dc0 28cd 8ac0 08c7 81c0
00000020: c1e5 8dc0 eceb 90c0 4bbd 8ac0 8d03 87c0
00000030: ea55 86c0 b4b0 86c0 0b9d 8ac0 eadc 7dc0
00000040: 4892 8bc0 9856 7cc0 0056 84c0 8aaf 99c0
00000050: 0ac3 85c0 28ef 83c0 5b2b 82c0 be5c 8cc0
00000060: b4cb 8fc0 6638 8bc0 e25b 98c0 53df 8bc0
00000070: 9ef3 86c0 e4a4 90c0 fbd6 8ac0 6e57 8cc0
00000080: 1631 8ac0 2f3a 7dc0 6955 87c0 fd2f 85c0
00000090: 1f60 8ac0 6bec 88c0 8ed6 7dc0 5c6b 91c0
000000a0: c5a0 8dc0 ed30 81c0 f30e 86c0 280b 92c0
000000b0: e5ee 6dc0 b514 89c0 086a 8cc0 af32 8ac0
000000c0: 7010 86c0 c49d 86c0 a076 8fc0 37da 83c0
000000d0: 9ddb 88c0 dc40 94c0 ea9b 83c0 5bf2 8fc0
000000e0: ce35 8ec0 9ce6 8cc0 6e84 87c0 d024 8ec0
000000f0: 23c4 91c0 a94f 90c0 5cd5 90c0 a576 8dc0

model.2.weight f4 [128, 64]
0.3766522 -0.2101901 0.39265454 -0.041981615 -0.13110349 -0.114145905 -0.30903 -0.028017776
0.05496275 0.20866825 0.18462619 0.20378667 -0.08757524 0.16135187 0.10261175 0.17180863
0.23404327 0.4368785 -0.05607027 0.20004371 0.14567819 -0.01419029 0.18867005 -0.3026631
-0.05056511 0.17652148 0.2598697 -0.11864423 -0.12925497 0.050011843 0.0071960045 0.112591885
-0.27466705 -0.19112259 -0.31964517 -0.16624591 0.21232021 -0.064804874 -0.025572937 -0.08866025
-0.009052226 0.11437188 0.08492727 -0.2753627 0.1428126 0.10442472 -0.065242425 0.35473675
-0.15418491 -0.20113115 0.0414301 0.26620698 -0.29363316 -0.012158175 -0.24193226 -0.15502504
-0.25417927 0.02218726 -0.03134208 -0.19139092 -0.3025751 -0.091871135 -0.08061577 0.6936246
0.24813443 0.08781233 0.14567256 0.16612004 -0.009061394 0.08674378 -0.12281549 0.016139876
0.21919827 -0.38189787 -0.29416823 0.027784642 0.3217085 0.19963773 -0.0045716763 -0.122007705
0.25555623 -0.11429327 0.2979478 0.016455846 0.37093118 0.052991807 -0.003586891 -0.36872765
-0.084469855 0.1888865 -0.032922395 0.19235536 0.032354288 0.088317275 0.21889715 -0.19030201
0.030397914 0.3877073 -0.17457408 -0.10625624 0.0923145 0.13553539 0.046785682 0.080050014
-0.0117470715 0.0823851 -0.09775805 0.049464017 -0.07798564 -0.1873931 0.03433092 -0.2519612
0.09423682 0.013501459 -0.04609157 -0.016897872 0.030453788 -0.3329115 0.09250738 -0.38008922
0.2859703 -0.0014890373 -0.05740869 -0.15577027 0.09079293 0.031373553 -0.1174164 -0.17646149
0.06385107 0.24357982 0.06810091 -0.3599127 -0.12466096 0.48247084 -0.105887294 0.09772782
0.097274706 -0.19122286 0.46987373 0.123941645 0.39543203 -0.18962926 0.21592128 -0.15452914
0.0089494735 0.081158176 0.090817675 -0.0647702 -0.27319658 0.102919675 -0.1943773 -0.2214148
-0.18995392 -0.38954678 -0.09916886 -0.24565078 -0.28018817 0.39904562 -0.047988337 -0.2559951
-0.12564364 -0.34604308 0.09949236 -0.20303704 -0.27229428 0.025019158 -0.1264069 0.09500095
0.1424988 0.13393167 0.27931404 0.01235775 0.098346785 0.111924656 0.07781649 -0.041511036
-0.006752732 0.21304704 0.42713195 -0.087040015 -0.2040654 -0.17194109 0.3469424 0.246133
-0.043781504 0.03498865 0.046818033 0.015142808 0.07769367 -0.14821924 0.13448474 0.37063023
-0.14474322 -0.09837688 -0.09471875 -0.10542943 -0.20905825 0.025963916 -0.04018406 0.015775483
0.015820434 -0.27873588 0.1896847 -0.01562691 0.16853768 0.085079394 -0.023832873 -0.015628746
-0.15451719 -0.14400488 0.09639406 -0.09955823 0.20910022 -0.238099 -0.0125835445 -0.008959803
0.2702813 -0.16547121 0.33004907 -0.12048272 0.03259551 0.035642773 0.045565076 -0.11094828
0.033334043 0.15164675 0.08566132 -0.039885722 0.023201706 -0.09498719 0.25674936 -0.16437617
0.07157615 -0.09669199 -0.12707537 -0.20282075 -0.00861511 -0.1790527 -0.0018137326 -0.22426747
0.111175425 -0.3068891 0.027707132 0.051852245 -0.21121395 -0.22585963 0.31807047 0.07832485
-0.15031022 0.29158974 -0.24022761 -0.09971038 -0.11170082 0.02607922 0.0052663446 0.020597298
00000000: 8fd8 c03e 133c 57be 040a c93e eaf4 2bbd
00000010: fe3f 06be 54c5 e9bd 2e39 9ebe 8985 e5bc
00000020: 9f20 613d 21ad 553e a60e 3d3e 74ad 503e
00000030: a65a b3bd 6d39 253e 1c26 d23d 9aee 2f3e
00000040: 0aa9 6f3e 8aae df3e f0a9 65bd 42d8 4c3e
00000050: aa2c 153e 647e 68bc b932 413e a8f6 9abe
00000060: 5c1d 4fbd 0cc2 343e a40d 853e bffb f2bd
00000070: 6a5b 04be 38d9 4c3d 76cc eb3b 9396 e63d
00000080: 29a1 8cbe a4b5 43be 88a8 a3be 5e3c 2abe
00000090: 786a 593e 6bb8 84bd 567e d1bc 8193 b5bd
000000a0: ca4f 14bc ce3b ea3d 59ee ad3d 57fc 8cbe
000000b0: 773d 123e a1dc d53d d29d 85bd 0ea0 b53e
000000c0: a6e2 1dbe 53f5 4dbe 9cb2 293d 484c 883e
000000d0: 1657 96be 1533 47bc 17bd 77be e2be 1ebe
000000e0: c923 82be 0fc2 b53c 8e60 00bd fbfb 43be
000000f0: 20eb 9abe ef26 bcbd e119 a5bd 6291 313f
00000100: f416 7e3e f3d6 b33d 302b 153e 5f1b 2a3e
00000110: 3e76 14bc b9a6 b13d b086 fbbd c637 843c
00000120: 8375 603e 1e88 c3be 389d 96be 9e9c e33c
00000130: fab6 a43e d56d 4c3e 00ce 95bb 2ddf f9bd
00000140: 44d8 823e 9712 eabd 9d8c 983e 69ce 863c
00000150: b1ea bd3e f00d 593d 0c12 6bbb dfc9 bcbe
00000160: 88fe acbd 766b 413e a2d9 06bd cef8 443e
00000170: ee85 043d b0df b43d 9326 603e 88de 42be
00000180: 0c05 f93c 9281 c63e 8cc3 32be df9c d9bd
00000190: 620f bd3d cac9 0a3e 58a2 3f3d 43f1 a33d
000001a0: ca76 40bc 85b9 a83d 5f35 c8bd c89a 4a3d
000001b0: efb6 9fbd fae3 3fbe 949e 0c3d 0f01 81be
000001c0: 3cff c03d 3935 5d3c 84ca 3cbd 686d 8abc
000001d0: 397a f93c 6073 aabe 8274 bd3d 0e9b c2be
000001e0: b36a 923e cd2b c3ba 6025 6bbd 3e82 1fbe
000001f0: a5f1 b93d 8e81 003d 0278 f0bd 52b2 34be
00000200: 5ac4 823d fd6c 793e 7d78 8b3d 7a46 b8be
00000210: 3f4e ffbd 6b06 f73e 70db d8bd 8625 c83d
00000220: f637 c73d edcf 43be 4a93 f03e 1ed5 fd3d
00000230: 1176 ca3e 2c2e 42be 781a 5d3e e33c 1ebe
00000240: d0a0 123c 4236 a63d 9efe b93d 3da6 84bd
00000250: 6ce0 8bbe 8dc7 d23d d80a 47be 90ba 62be
00000260: 4883 42be ad72 c7be 0b19 cbbd e18b 7bbe
00000270: d374 8fbe b54f cc3e 6b8f 44bd ca11 83be
00000280: baa8 00be 8f2c b1be a7c2 cb3d f1e8 4fbe
00000290: 286a 8bbe faf4 cc3c cf70 01be dc8f c23d
000002a0: 35eb 113e 6225 093e 4002 8f3e 2978 4a3c
000002b0: 0a6a c93d c138 e53d 405e 9f3d 7a07 2abd
000002c0: 0646 ddbb 0129 5a3e 0ab1 da3e 0942 b2bd
000002d0: 85f6 50be 5311 30be 6fa2 b13e 4a0a 7c3e
000002e0: 3c54 33bd 4250 0f3d 44c4 3f3d 8a19 783c
000002f0: dc1d 9f3d c9c6 17be 5eb6 093e 3fc3 bd3e
00000300: 9137 14be d179 c9bd e7fb c1bd 63eb d7bd
00000310: 5e13 56be 47b2 d43c 0a98 24bd 963b 813c
00000320: db99 813c 78b6 8ebe b53c 423e 0104 80bc
00000330: 2495 2c3e 1b3e ae3d 283d c3bc db07 80bc
00000340: c139 1ebe 0476 13be 406a c53d 2fe5 cbbd
00000350: 5e1e 563e 39d0 73be 362b 4ebc 23cc 12bc
00000360: 5062 8a3e 4971 29be 31fc a83e a5bf f6bd
00000370: df82 053d 28fe 113d 72a2 3a3d da38 e3bd
00000380: 4789 083d 4949 1b3e 346f af3d 365f 23bd
00000390: 8111 be3c a588 c2bd a774 833e 3a52 28be
000003a0: 8496 923d 7306 c6bd 0c20 02be 3eb0 4fbe
000003b0: 6426 0dbc 9759 37be c4ba edba 5fa6 65be
000003c0: f1af e33d 9120 9dbe 11fa e23c 0563 543d
000003d0: 7848 58be bf47 67be 22da a23e c768 a03d
000003e0: ecea 19be 404b 953e 3afe 75be f534 ccbd
000003f0: 66c3 e4bd 17a4 d53c 4d91 ac3b aabb a83c

model.2.bias f4 [128]
-3.490901 -3.677086 -3.0326474 -3.1853502 -3.643767 -3.5506258 -3.4023476 -3.4842286
-3.5172765 -3.8084724 -3.6500227 -3.5134947 -3.0987005 -3.2574494 -3.767928 -3.2452307
-3.4048164 -3.459387 -3.7562058 -3.680103 -3.224064 -3.4014819 -3.6523077 -4.104218
-3.2816572 -3.481932 -3.6535525 -3.576298 -3.0923872 -3.597627 -3.494253 -3.4319344
-3.8029358 -3.1072888 -3.0546963 -3.4644198 -3.8333175 -3.2736306 -3.2044039 -3.659201
-3.3809602 -3.3741374 -3.7382786 -3.1566262 -3.8660061 -3.1658936 -3.3425193 -3.2276895
-3.694121 -3.0141432 -3.3584511 -3.3762438 -3.249401 -3.7092817 -3.6410036 -3.533501
-3.4539187 -3.6719584 -3.3109057 -3.2777297 -3.4808447 -3.3926628 -3.2337892 -3.7140555
-3.2866106 -3.4938307 -3.619998 -3.7746599 -2.9332871 -3.4850368 -3.4839163 -3.5198123
-3.7546246 -3.7266026 -3.9273317 -3.5930033 -3.3829892 -3.3154404 -3.7985668 -3.6378236
-3.5731645 -3.5850956 -3.2238376 -3.535535 -3.0520515 -3.635824 -3.6121492 -3.3151913
-3.2922478 -3.6961234 -3.4863522 -3.0403647 -3.859112 -3.142143 -3.3152597 -3.739398
-3.6689103 -3.288978 -3.6847203 -3.7770162 -3.638459 -3.8290055 -3.5545151 -3.7534068
-3.3275697 -3.8082306 -3.5379725 -3.5169594 -3.6941829 -3.465086 -3.4474614 -3.2800498
-3.4466999 -3.256211 -3.2687516 -3.435515 -3.472063 -3.5228374 -3.765901 -3.69114
-3.7204013 -3.2143645 -3.1679702 -3.4078996 -3.6200032 -3.8203645 -3.2531276 -3.5049355
00000000: ec6a 5fc0 6155 6bc0 e516 42c0 c7dc 4bc0
00000010: 7b33 69c0 743d 63c0 10c0 59c0 9afd 5ec0
00000020: 0f1b 61c0 03be 73c0 f999 69c0 19dd 60c0
00000030: 1c51 46c0 0d7a 50c0 bb25 71c0 dcb1 4fc0
00000040: 83e8 59c0 9966 5dc0 ad65 70c0 cf86 6bc0
00000050: 1157 4ec0 e1b1 59c0 69bf 69c0 c155 83c0
00000060: ac06 52c0 f9d7 5ec0 ced3 69c0 11e2 64c0
00000070: ace9 45c0 853f 66c0 d7a1 5fc0 d0a4 5bc0
00000080: 4d63 73c0 d2dd 46c0 2580 43c0 0eb9 5dc0
00000090: 1355 75c0 2a83 51c0 f414 4dc0 5930 6ac0
000000a0: a761 58c0 def1 57c0 f53f 6fc0 2a06 4ac0
000000b0: a56c 77c0 009e 4ac0 d6eb 55c0 7792 4ec0
000000c0: 7a6c 6cc0 b9e7 40c0 ddf0 56c0 6114 58c0
000000d0: 30f6 4fc0 df64 6dc0 3406 69c0 e124 62c0
000000e0: 010d 5dc0 5e01 6bc0 e1e5 53c0 53c6 51c0
000000f0: 29c6 5ec0 6321 59c0 67f6 4ec0 16b3 6dc0
00000100: d457 52c0 ec9a 5fc0 0cae 67c0 0794 71c0
00000110: faba 3bc0 d80a 5fc0 7cf8 5ec0 9b44 61c0
00000120: c54b 70c0 a880 6ec0 6759 7bc0 c4f3 65c0
00000130: e582 58c0 2d30 54c0 b81b 73c0 1ad2 68c0
00000140: baae 64c0 3572 65c0 5b53 4ec0 3546 62c0
00000150: d054 43c0 57b1 68c0 742d 67c0 182c 54c0
00000160: 30b4 52c0 498d 6cc0 6520 5fc0 5695 42c0
00000170: b1fb 76c0 df18 49c0 372d 54c0 4c52 6fc0
00000180: 6dcf 6ac0 9e7e 52c0 75d2 6bc0 a2ba 71c0
00000190: 83dc 68c0 6d0e 75c0 2d7d 63c0 d137 70c0
000001a0: e7f6 54c0 0dba 73c0 246e 62c0 dd15 61c0
000001b0: 7e6d 6cc0 f8c3 5dc0 35a3 5cc0 56ec 51c0
000001c0: bb96 5cc0 c365 50c0 3a33 51c0 7adf 5bc0
000001d0: 4836 5ec0 2b76 61c0 8604 71c0 a33b 6cc0
000001e0: 0e1b 6ec0 26b8 4dc0 06c0 4ac0 071b 5ac0
000001f0: 22ae 67c0 da80 74c0 3e33 50c0 dd50 60c0

model.4.weight f4 [1, 128]
0.047767818 -0.015336293 -0.017759196 -0.003295913 0.022163706 0.021226374 -0.038304165 0.020620897
-0.045854136 -0.016161598 0.0008686943 -0.0070805913 0.0031166782 -0.011387229 -0.007460257 -0.007034264
-0.008922494 0.020549243 -0.021834927 -0.0019620406 0.024644675 -0.06283032 -0.019017637 -0.0077605285
-0.00032791635 -0.009517999 0.0021651979 0.006580696 0.00063749496 -0.017680671 0.038887914 -0.01868988
0.002739975 0.004054081 0.021437358 -0.014199368 0.015372755 -0.010326494 -0.000797734 -0.0048781065
-0.023056244 0.006553756 0.007038376 -0.01303285 -0.037304804 0.0016719168 0.0061425306 -0.008924145
0.004239919 0.015053073 0.03576824 0.010473032 -0.009718077 -0.014432314 -0.024628788 0.02806369
-0.050793543 0.0020286562 0.012410689 0.0046734056 -0.0012529909 -0.0036904246 -0.04833182 -0.0004832393
-0.019594658 0.041575085 -0.0007380766 0.000913377 0.022068217 -0.045343433 0.06481008 -0.014889584
-0.0036301003 -0.0042550676 0.01324567 -0.007513105 -0.019891089 0.008212589 0.012068733 -0.010908263
-0.0399443 -0.015790865 0.028765084 -0.005061233 -0.041407738 -0.022986658 0.0015345288 0.021455977
0.03191959 0.022166368 -0.0189684 -0.016026692 -0.052620575 -0.0075140875 -0.012061075 0.010432458
0.010360836 -0.00891178 -0.009597092 0.023711316 -0.00086090696 -0.032074325 -0.012038974 -0.002726193
0.010700024 0.02729981 -0.028458213 0.039594073 0.020099623 0.014148167 0.0008959068 0.033001594
0.0013716614 -0.0056800125 0.0020417497 0.009629086 -0.025425615 0.04698443 0.0045961686 -0.028603064
-0.0050624805 0.0161945 0.004275147 0.0009659501 -0.0048753493 -0.012503866 -0.038188435 0.06529568
00000000: 30a8 433d 1345 7bbc bc7b 91bc 3f00 58bb
00000010: a990 b53c efe2 ad3c d4e4 1cbd 28ed a83c
00000020: 8cd1 3bbd 5465 84bc 16b9 633a 4e04 e8bb
00000030: 2f41 4c3b 8091 3abc 2c75 f4bb af7f e6bb
00000040: a72f 12bc e356 a83c 29df b2bc 9495 00bb
00000050: a1e3 c93c 2fad 80bd e0ca 9bbc 084c febb
00000060: 30ec abb9 62f1 1bbc fee5 0d3b e1a2 d73b
00000070: 901d 273a 0ed7 90bc ef48 1f3d 851b 99bc
00000080: 2791 333b 19d8 843b 669d af3c 77a4 68bc
00000090: 02de 7b3c 7530 29bc 061f 51ba 86d8 9fbb
000000a0: 73e0 bcbc e4c0 d63b 2da2 e63b bc87 55bc
000000b0: eccc 18bd 3824 db3a 4847 c93b 9436 12bc
000000c0: 05ef 8a3b 2aa1 763c b881 123d 1497 2b3c
000000d0: 9238 1fbc 8375 6cbc 50c2 c9bc d3e5 e53c
000000e0: e40c 50bd 34f3 043b 3456 4b3c 5e23 993b
000000f0: 663b a4ba 0ddb 71bb 96f7 45bd 485b fdb9
00000100: fa84 a0bc a34a 2a3d 7b7b 41ba b16f 6f3a
00000110: 68c8 b43c 09ba 39bd 26bb 843d 71f3 73bc
00000120: fae6 6dbb 186e 8bbb 5e04 593c 7e30 f6bb
00000130: a3f2 a2bc 188e 063c efbb 453c 92b8 32bc
00000140: a29c 23bd d85b 81bc c1a4 eb3c b3d8 a5bb
00000150: 299b 29bd 844e bcbc 3e22 c93a 72c4 af3c
00000160: 1ebe 023d 3e96 b53c 9e63 9bbc 694a 83bc
00000170: ac88 57bd bc38 f6bb d19b 45bc e6ec 2a3c
00000180: 7fc0 293c b702 12bc 1f3d 1dbc 3c3e c23c
00000190: 7dae 61ba 5e60 03bd 1e3f 45bc eea9 32bb
000001a0: 274f 2f3c daa3 df3c 3321 e9bc 652d 223d
000001b0: f7a7 a43c b7cd 673c 4adb 6a3a ae2c 073d
000001c0: 52c9 b33a 661f babb e0ce 053b 50c3 1d3c
000001d0: 6149 d0bc bf72 403d 759b 963b f950 eabc
000001e0: 2ae3 a5bb 54aa 843c 8816 8c3b d037 7d3a
000001f0: 65c1 9fbb 04dd 4cbc 7a6b 1cbd beb9 853d
