src/pms/train/models/generator_state_dict.pth (torch, 88842 bytes, 6 tensors)

model.0.weight f4 [128, 100]
000000 c0 7a 8d ba 0f 87 b3 b9 05 8a af b9 98 bc 42 b9
       -0.0010794029 -0.00034242167 -0.00033481434 -0.00018571538
000010 99 cc fd 3a a5 f9 d2 39 74 9a 24 ba f3 0a 05 bb
       0.0019363343 0.0004024032 -0.0006279119 -0.0020300716
000020 d1 f1 02 ba d6 4f 02 b9 4a e3 9d 3a a1 02 83 39
       -0.000499514 -0.00012427507 0.0012045887 0.00024988226
000030 5a 14 3f bb b3 66 12 3b 27 a6 dd 3a d2 fa 2a bb
       -0.0029156418 0.0022339046 0.0016910479 -0.0026089442
000040 e2 9b 8b 3a 6e 56 9f 3a f9 16 13 3a 96 ba 0e b8
       0.0010651315 0.0012156495 0.0005611028 -3.402921e-05
000050 1b 2c 89 3a d7 c4 96 3a 64 05 ff 3a c6 d4 54 bb
       0.0010465415 0.0011502755 0.0019456563 -0.0032475456
000060 c9 8d 0f 3a 63 3f d7 39 19 f4 70 3a 51 9c 40 b9
       0.0005476145 0.00041055222 0.0009191647 -0.0001836878
000070 35 46 3a bb ef 53 d3 39 c2 4d df 3a fd 82 1f bb
       -0.0028423194 0.00040307592 0.0017036723 -0.002433955
000080 a6 28 a2 3a 1f 53 c7 b8 64 e1 1e 3a 8c e6 2c 3b
       0.0012371733 -9.504542e-05 0.00060608075 0.0026382534
000090 22 fd 09 3a a2 9b 29 bb ef c5 96 ba 66 96 97 3a
       0.0005263855 -0.0025880118 -0.0011503081 0.0011565208
0000a0 e9 aa ae 3a 4f e6 75 ba 68 61 8a 3a b0 df 40 3b
       0.0013326082 -0.0009380327 0.0010557594 0.0029430203
0000b0 d8 81 ed 3a 08 51 4d ba c2 b7 3e 39 53 14 3c bb
       0.0018120361 -0.0007832204 0.00018188267 -0.0028698638
0000c0 58 0f dd b9 00 20 04 ba ac 6c 9a 3a 99 61 0f 3b
       -0.00042163837 -0.0005040169 0.0011781654 0.002187824
0000d0 c7 41 dd ba 09 f5 7c 3a 15 39 04 bb b8 1e 52 3a
       -0.0016880565 0.000964955 -0.0020175625 0.00080154417
0000e0 8e 4f a7 3b 8f 83 fd ba 54 f0 4a 3a 38 73 9e ba
       0.005105919 -0.0019341576 0.00077415 -0.0012088781
0000f0 07 7a ac 3a 1b 76 20 ba 1a aa b0 ba 94 04 a7 39
       0.0013158926 -0.0006121115 -0.0013478429 0.00031856133
000100 e1 be 2f b9 e1 5a 62 39 19 09 1a ba 48 fb f0 ba
       -0.00016760408 0.00021586895 -0.00058759894 -0.0018385435
000110 ca 65 bc b8 21 25 7d 3a 75 31 52 bb bc 2d 48 3a
       -8.983498e-05 0.0009656717 -0.0032072936 0.00076362095
000120 c3 02 eb b9 9d 79 28 3a c6 6c 0e ba 56 f5 f4 3a
       -0.0004482475 0.0006426813 -0.00054330786 0.0018688838
000130 39 58 01 b9 22 30 c8 b9 35 49 cd b9 66 70 0e ba
       -0.00012335264 -0.00038182834 -0.0003915519 -0.0005433619
000140 1d 5b 08 3b 6f e8 db 3a 81 88 a5 ba 4e a9 c1 39
       0.002080626 0.0016777645 -0.0012629182 0.0003693797
000150 19 ee 0b ba 43 b1 e7 37 9e 85 15 3a 94 bc 08 ba
       -0.00053379085 2.761989e-05 0.00057038094 -0.00052160886
000160 5e 8b b8 ba a0 01 bb b9 b6 e4 6c b8 b3 e6 17 ba
       -0.0014079621 -0.0003566863 -5.647979e-05 -0.000579457
000170 a2 de 22 bb 08 50 e8 ba f1 ff b6 3a ce 06 c4 3a
       -0.0024851938 -0.0017724046 0.0013961775 0.0014955641
000180 6a 17 84 b8 a1 53 2c bb 78 d2 b0 39 ae b0 e1 b8
       -6.298612e-05 -0.0026294964 0.00033726147 -0.00010761745
000190 a2 df 14 ba 40 e5 7b bb f9 3c 8e 39 08 f0 00 3a
       -0.0005679076 -0.0038436204 0.0002712978 0.000491858
0001a0 56 a4 5e 3b 1a f4 c4 3a 3d bb e2 3a 89 9b 81 ba
       0.0033972464 0.0015026361 0.0017298233 -0.0009888272
0001b0 07 95 08 ba b6 85 33 3b 68 75 07 ba dc 6e 04 bb
       -0.0005210195 0.002739293 -0.0005167336 -0.002020768
0001c0 79 a3 c3 3a dc 80 48 ba 3d be 68 bb 80 49 ec 3a
       0.0014926038 -0.0007648596 -0.0035513781 0.0018027276
0001d0 e9 94 85 3a f2 97 d9 3a 9d e1 98 39 70 1c 0e bb
       0.0010191473 0.0016601069 0.00029159794 -0.002168443
0001e0 7a 3b 11 b9 4a f8 73 ba 98 21 1e 3b c5 b7 36 3b
       -0.00013850434 -0.00093067123 0.002412891 0.0027880531
0001f0 3b e2 e2 37 94 1b 31 3a 68 ff 60 3a 08 b3 31 bb
       2.7046646e-05 0.00067561236 0.00085829804 -0.0027114768
000200 cc 17 38 3b 94 9b f8 ba 9d 52 8c 3a 23 65 7c b9
       0.0028090356 -0.0018967264 0.0010705773 -0.00024070269
000210 dc 79 94 ba 79 9c 88 39 55 2d a8 3a e5 45 b8 ba
       -0.0011327821 0.00026056523 0.0012830893 -0.0014058916
000220 02 64 08 bb 80 db 52 39 53 fd b8 3a 04 98 7f 3a
       -0.0020811562 0.00020108931 0.0014113582 0.000975013
000230 65 55 96 3a a1 97 78 3a 40 b0 ed 3a 84 68 f5 b7
       0.0011469541 0.00094830437 0.0018134192 -2.9254945e-05
000240 f5 73 b1 b9 82 7f 34 3b 68 77 9b 3a ed 72 89 ba
       -0.00033846466 0.002754182 0.0011861147 -0.0010486521
000250 44 62 d2 ba 6c 3a e2 3a bc 09 81 3b 6a d6 b7 b9
       -0.0016051014 0.0017259843 0.003937928 -0.0003506423
000260 7e 37 ce ba 81 bc 41 3b 62 8f 81 39 c1 73 ff 3a
       -0.0015733091 0.002956182 0.00024711626 0.0019489453
000270 1d 19 ab bb eb b9 58 3a a1 19 21 bb 06 4b 21 3b
       -0.0052214996 0.000826745 -0.0024581926 0.0024611368
000280 93 d2 d2 3a 4f ab ba ba 58 a0 a8 ba de f3 09 bb
       0.0016084485 -0.0014241728 -0.0012865169 -0.0021049897
000290 5d 77 61 3b 1d 35 d4 3a f2 fb 0e bb e7 63 4c ba
       0.0034403421 0.0016190145 -0.0021817652 -0.0007796869
0002a0 5a 61 ea b9 4c a0 c3 39 aa d7 03 bb 0d e4 6c 3b
       -0.0004470449 0.0003731273 -0.002011756 0.003614667
0002b0 21 6a db b9 9e ed e9 b9 36 85 91 3b e5 59 d3 3a
       -0.00041850007 -0.00044618262 0.004440929 0.0016124813
0002c0 9e af 87 ba fc 59 59 ba d9 14 27 3b 22 8d 2e 3a
       -0.0010352021 -0.0008291302 0.0025494604 0.00066586037
0002d0 96 ce e3 3a 92 82 a3 3b 64 80 a8 3a 9e 01 ec b9
       0.0017380293 0.0049899304 0.0012855646 -0.00045014633
0002e0 31 54 17 3b 3d 11 57 3b 29 ba 8c 39 38 b8 4b b9
       0.0023090953 0.0032816671 0.0002684158 -0.00019428215
0002f0 b5 8e 6a 3b 56 2f 7e 3b 5e 72 ca ba cc 1d 04 3b
       0.0035790626 0.0038785539 -0.0015445461 0.0020159362
000300 dd 29 ae 3a b0 58 0a 3b a6 72 5a 3b 5e 7b 61 ba
       0.0013287623 0.002110999 0.0033332496 -0.0008601452
000310 df cd 69 bb 20 84 a4 bb 48 89 c7 3a a6 38 cd ba
       -0.0035675687 -0.0050206333 0.0015223408 -0.0015657141
000320 23 11 6c 3b 33 66 43 3b 09 2f 27 3a d4 fd a7 39
       0.0036020956 0.0029815554 0.0006377553 0.0003204184
000330 92 00 b0 3b c7 15 34 ba 9b 2d 19 bb b4 db ae 3a
       0.0053711617 -0.00068697 -0.002337313 0.0013340623
000340 61 d8 2b 3b 98 e9 48 bb dc 22 21 3a 94 d3 21 39
       0.0026221501 -0.003065681 0.0006146857 0.00015432975
000350 c5 38 af 3a 3f b6 78 bb b5 98 a7 ba 03 db 74 39
       0.0013368359 -0.0037950424 -0.0012786599 0.00023351242
000360 60 3c 50 ba 73 2a 8d 3b 3c 19 12 3b 7d a3 58 bb
       -0.0007943567 0.004308039 0.0022292873 -0.003305643
000370 4c 16 e3 37 96 df 1e 3a 0c 5c f7 ba e8 10 7c 3a
       2.7070892e-05 0.00060605386 -0.0018872037 0.00096155563
000380 5d f1 13 3b c0 46 e3 ba 40 cd 03 bb 8f 40 30 bb
       0.0022574284 -0.0017339811 -0.0020111352 -0.0026893949
000390 46 b0 a2 ba 09 79 6d ba a0 0f 29 ba ca 7d 58 bb
       -0.0012412153 -0.0009058868 -0.00064491667 -0.003303396
0003a0 92 b7 20 bb 15 d1 14 3b 5e 15 0c bb b3 ac 65 3b
       -0.002452348 0.002270763 -0.002137504 0.0035045564
0003b0 39 7f 81 bb 32 50 1e 3a 7f a6 a5 39 a4 4c 7e b9
       -0.0039519337 0.0006039172 0.00031595302 -0.00024251878
0003c0 36 4a c3 ba 02 63 d4 3a 9a b6 1e 3a d7 9a 05 bb
       -0.0014899436 0.0016203823 0.00060544314 -0.0020386481
0003d0 ea b0 e2 ba c0 c2 59 ba 7b 68 b2 3a 72 3f 2b ba
       -0.0017295156 -0.0008306913 0.001361146 -0.00065325864
0003e0 9b f7 34 3a 0b 40 c2 ba d1 83 96 3b 8b 76 f8 b9
       0.0006903351 -0.0014820112 0.0045933505 -0.00047390567
0003f0 aa 3e 96 ba 87 d8 d9 3a 3a c6 0b bb 94 c0 54 3b
       -0.0011462767 0.0016620316 -0.002132787 0.0032463418

model.0.bias f4 [128]
000000 7b 9c 25 bd 02 60 b8 bc b3 c4 b6 bc 53 84 d4 bc
       -0.040432435 -0.022506718 -0.02231059 -0.025942003
000010 28 13 91 bc 4e 66 90 bc 56 8a 6d bc 96 69 8d bc
       -0.01770933 -0.017626908 -0.014498314 -0.017262261
000020 71 fc b6 bc 34 60 81 bc 3e 1b a7 bc e9 8c 8a bc
       -0.02233717 -0.015792944 -0.020398732 -0.016912894
000030 c2 ad a2 bd 6b 3a cb bc 13 50 fa bc 7f d3 d1 bc
       -0.07943298 -0.02480813 -0.03055576 -0.025613545
000040 29 ac 0e bd 74 01 53 bc bd 1c cb bc d4 ee a6 bc
       -0.034832153 -0.012878764 -0.024793977 -0.020377554
000050 bf bc dc bc df 58 83 bd 8b 63 b2 bc 5b 3d bb bc
       -0.02694547 -0.06413435 -0.021775981 -0.022856405
000060 0e 29 7e bc a9 9f 91 bc 29 c1 9e bc 86 2e 92 bc
       -0.015512718 -0.017776327 -0.019379215 -0.01784445
000070 fe 10 63 bc 74 28 9d bc e8 60 d7 bc 76 a6 b9 bc
       -0.013859032 -0.019184329 -0.026291326 -0.022662383
000080 86 f3 92 3d 3f 75 9f bc 99 f1 15 bd b5 37 c8 bc
       0.07175355 -0.019465087 -0.03660736 -0.024440626
000090 72 39 d8 bc 83 7b e9 bc e1 04 8c bc ca 97 9e bc
       -0.02639458 -0.028501278 -0.01709217 -0.019359488
0000a0 64 08 8c bc 1c e2 01 bd e1 92 cb bc d2 3d cf bc
       -0.017093845 -0.031709775 -0.02485031 -0.025298033
0000b0 9b c9 8a bc 4d 68 9b bc 17 da 09 bd 72 5b ca bc
       -0.016941836 -0.018970633 -0.033655252 -0.024701808
0000c0 70 0b 8d bc 68 3a 9b be a9 64 d1 bc 0c 98 a4 bc
       -0.017217368 -0.30317998 -0.025560694 -0.020092033
0000d0 ce 30 aa bc 2e 3e a8 be 55 c5 a8 bc 56 05 a6 bc
       -0.020775225 -0.3285994 -0.020601908 -0.020266216
0000e0 52 96 8e bc 0a b8 a3 bc f7 f3 00 bf be ad 97 bc
       -0.017405663 -0.019985218 -0.5037226 -0.018515464
0000f0 b4 14 ae bc 81 de 04 bd 9a 0f d7 bc 3d fa 35 bd
       -0.021250106 -0.03243876 -0.026252557 -0.0444281
000100 79 08 a4 bc 9e 13 ea bd a1 c6 c7 bc 84 f7 95 bc
       -0.020023571 -0.11429523 -0.024386706 -0.018306501
000110 79 6d 98 bc 04 7c 34 bd c9 9a cb bc 54 23 6a be
       -0.018606888 -0.044063583 -0.02485408 -0.22865039
000120 b7 36 82 bc a7 07 bc bc b1 5d b2 bc 51 75 5a bc
       -0.01589523 -0.022952868 -0.021773191 -0.0133336345
000130 1a 4e ae bc 90 5a d5 bc b7 4f d2 bd 35 14 ec bc
       -0.021277476 -0.02604416 -0.10269111 -0.02881823
000140 54 18 ba bc 1a a8 fc bc a8 94 9e bc cf ba 55 be
       -0.022716679 -0.030841876 -0.019357994 -0.20872043
000150 32 4a a0 bc d4 58 b6 bc 95 c6 be bc 35 0b f0 bc
       -0.01956663 -0.022259153 -0.02328805 -0.029302219
000160 17 dc af bc ab 88 dd bc ec 80 a8 bc a6 79 c3 bc
       -0.021467252 -0.027042707 -0.020569287 -0.023861717
000170 a2 46 f9 bc 0f 01 93 bc bc 69 7f bc 2e 94 04 bd
       -0.030429188 -0.01794484 -0.015589174 -0.032367878
000180 b9 c1 97 bc cb 3c 01 bf 7b c6 e8 bc 17 92 c3 bc
       -0.018524991 -0.5048339 -0.028414955 -0.023873372
000190 47 e2 83 bc eb 10 af bc 64 c6 48 bc 63 10 83 bc
       -0.016099108 -0.021370372 -0.012254331 -0.015999025
0001a0 87 5b 91 bc ab 30 bf bc 99 d9 94 bc 2d de ba bc
       -0.017743839 -0.023338636 -0.018170165 -0.02281102
0001b0 6c b7 e4 bd a5 c7 33 bd be f6 99 bc 47 32 1a bd
       -0.111677974 -0.043891568 -0.018794414 -0.037645604
0001c0 f2 5e e5 bc f9 59 c1 bc fd 70 81 bc 8f bc 82 bc
       -0.027999375 -0.023602473 -0.015800947 -0.015959052
0001d0 78 24 ee bc 72 f8 fb bc ac 5c 80 bc 68 7d 0a bd
       -0.029070124 -0.030758116 -0.01566919 -0.033811003
0001e0 d1 46 4a be c6 df 0d be 4e 84 03 bd 8a 91 e6 bc
       -0.19753577 -0.13854894 -0.032108597 -0.02814557
0001f0 70 44 db bc 65 78 9f bc d1 50 22 bd 0b 06 ae bd
       -0.026766032 -0.019466588 -0.039627854 -0.08497246

model.2.weight f4 [64, 128]
000000 c2 46 24 3c f0 a6 65 ba f2 2c 7a bb 07 d4 1d bd
       0.010026636 -0.00087605324 -0.0038173762 -0.038532283
000010 77 80 11 bc 08 31 01 3c bc 91 68 3c 0e ea 30 3b
       -0.008880726 0.007885225 0.014194902 0.0026994976
000020 3c 4f 77 3c f7 94 b9 3c 84 79 d5 bc fe 27 84 3b
       0.015094575 0.02265404 -0.02605892 0.0040330878
000030 97 be 14 3d 73 20 4a 3c cd 5b 55 bd 2f 88 47 3c
       0.036314573 0.012336838 -0.0520895 0.012178465
000040 59 6b f8 bd 3e 1d d7 3c 0a 78 ea 3b 9a c4 b6 3c
       -0.1212985 0.026259061 0.007155423 0.022310544
000050 72 8c 9c bb 9f 6f 4f 3b bd 19 17 bd 44 53 06 ba
       -0.0047774846 0.0031652225 -0.03688978 -0.0005124102
000060 28 61 1c 3b ea 34 82 bb d0 44 19 bc d4 e2 ad ba
       0.002386162 -0.003973593 -0.009354785 -0.0013266453
000070 78 43 70 bc 07 e6 6a 3d 17 ff 43 3d a0 39 11 bd
       -0.014664523 0.057348277 0.047850695 -0.035455346
000080 90 1d 09 3e aa 25 2b 3b 69 50 80 bb 63 e7 38 3d
       0.13390183 0.0026114979 -0.0039158356 0.045142543
000090 9a c8 68 3c 0a 62 1c be 5d 23 01 bd ad 18 f1 bc
       0.014207983 -0.15271774 -0.031527866 -0.029430712
0000a0 97 96 55 3c a7 b0 e8 3c 9f ec 46 bc d9 b3 38 bd
       0.013036392 0.028404547 -0.012141376 -0.04509339
0000b0 1f 54 c6 bb 0d eb 02 bc 54 e2 76 bd 3d 53 fb bc
       -0.0060525085 -0.007990611 -0.060274437 -0.03067934
0000c0 97 de 08 3c 26 14 2f bd d8 94 95 3c 20 09 36 bb
       0.008353851 -0.042743824 0.01825945 -0.0027776435
0000d0 df 06 13 3d 49 c6 6e 3d 1d 5e 4a bb f0 bf 25 3d
       0.035895225 0.05829457 -0.003087885 0.04046625
0000e0 1e c1 1b bc ec 1c 00 3d 06 8e 45 3d 5c 85 17 3d
       -0.009506492 0.031277582 0.048231147 0.036992416
0000f0 81 1f 54 bc c6 b7 06 3d ce c6 2d bc 2c 2d 9a 3d
       -0.012946964 0.032890104 -0.010606481 0.07528147
000100 85 9c f0 3b 9b 62 c7 bb eb 25 88 3c 54 34 62 bd
       0.0073428773 -0.0060847527 0.016619643 -0.055225685
000110 f6 00 9b 3c 0a 3d 5a bd ff 90 7b 3d 7e c1 49 3d
       0.018921357 -0.053280868 0.061417576 0.049256794
000120 d6 84 91 bc e0 ef c7 bc 0c 46 01 3d a1 c2 85 bc
       -0.017763536 -0.024406374 0.031560943 -0.016328158
000130 a7 51 43 ba 7d a4 16 3c bf 11 86 bd 43 99 05 ba
       -0.0007450827 0.0091944905 -0.065463535 -0.0005096385
000140 c0 f2 2b 3c d2 b5 3e be 3e 75 fb 3b 68 a4 48 3d
       0.010494888 -0.18624046 0.0076738885 0.048984915
000150 7c f7 0a 3d 78 a1 cf 3c 87 f4 3e bd ef 47 95 3c
       0.033927426 0.025345549 -0.04661992 0.018222777
000160 aa 10 84 3d a6 08 f4 bc f6 9a a4 bc 47 89 b8 3b
       0.06448491 -0.02978928 -0.020093422 0.005631599
000170 ea 0e 1e 3e 90 d6 51 3c fa 73 1c ba 83 10 7e 3c
       0.15435377 0.012807503 -0.00059682096 0.015506866
000180 72 ac fa 3b 37 e0 82 3d 9c cf 54 bc 1e df 67 bd
       0.0076499516 0.06390422 -0.012988951 -0.056609266
000190 57 5d 91 3c bf f7 41 3c 19 f7 d2 bb 10 c6 cf bc
       0.017744703 0.011838852 -0.0064381477 -0.025362998
0001a0 4f 6a be bc 13 62 33 bb 76 e8 21 bd 28 39 7b bd
       -0.023244051 -0.002737169 -0.039528333 -0.061333805
0001b0 56 a8 87 3d 33 b2 07 be 97 5f 28 bc 03 8c a9 bd
       0.066239044 -0.13251571 -0.010276697 -0.08278658
0001c0 98 75 f3 bd 37 ee 44 bc 25 9b 82 3c 1c 75 32 3c
       -0.118876636 -0.0120196855 0.01594312 0.010892179
0001d0 6a d5 02 ba 3e 9f 58 3d 84 bf 46 bc 26 10 96 3c
       -0.00049909076 0.05288624 -0.012130622 0.018318247
0001e0 6b 44 22 3d 64 58 c8 3d c5 c7 57 bd 19 a3 61 3d
       0.03961603 0.09782484 -0.05268075 0.055087183
0001f0 90 5c 73 bc 1f 99 48 bc b2 11 81 3d 9a 2e b0 3a
       -0.014853612 -0.012243538 0.06302203 0.0013441623
000200 56 df a6 3d 87 0a 99 bc 1b c5 48 bc 0a 4e c7 3c
       0.08148067 -0.018681778 -0.012254025 0.024329204
000210 58 6c 40 bd 52 8c 61 bb 95 92 4c bd 7e a6 d4 3c
       -0.046978325 -0.0034415913 -0.04994448 0.025958296
000220 2d f7 26 3d b3 36 2e bd fd 14 e7 3b 93 9d 3d bd
       0.04076307 -0.042532634 0.0070520625 -0.046292853
000230 12 35 49 3d 3b 0e f9 3c 88 5a 87 3c dd 0a fe bc
       0.049122877 0.030402293 0.01652266 -0.03101104
000240 39 50 a4 3d 36 5d 31 3d 7e 30 bb 3d c5 9e 1e bd
       0.08023114 0.043301784 0.091401085 -0.038725633
000250 78 26 be 3d 0f 04 09 3d 29 4e 6a 3d 6b c8 10 3d
       0.09284681 0.033451136 0.057203446 0.035347383
000260 09 3e 77 3d 26 67 44 bc cd e9 71 3c 91 90 a3 bb
       0.060361896 -0.011987483 0.014765215 -0.004991599
000270 fd 3d 27 3d ab 05 a3 3d 59 a1 25 bc ca e9 e8 3d
       0.0408306 0.079600655 -0.010109269 0.11372717
000280 8f 7f 98 bc cd 25 3d 3d 97 a4 14 bd e4 ce da 3b
       -0.018615512 0.046178628 -0.036289778 0.0066774953
000290 81 18 5a 3d 5c 40 94 3b f9 5f 7f bd ae 89 82 3b
       0.053246025 0.004524274 -0.062347386 0.003983698
0002a0 d2 18 84 bd 01 49 d1 3c f7 ea ed 3c 64 fd 1c bd
       -0.064500466 0.025547506 0.029042704 -0.03832759
0002b0 f0 89 84 bd 55 4e 08 bb e8 c0 a4 3d 02 1c f8 3c
       -0.06471622 -0.0020798643 0.080446064 0.030286793
0002c0 9c b7 1d 3c ad 3d 29 3c 7d e3 12 3c 8c d4 67 3d
       0.009626295 0.010329646 0.00896537 0.056599185
0002d0 e8 60 ab 3c 48 21 67 bd f0 c2 85 3d 52 03 fb bc
       0.020920232 -0.056428224 0.06531322 -0.030641232
0002e0 67 ff b2 3c fc 9b a7 3c 51 bb bc 3d 6f 5d 12 3d
       0.021850301 0.020460121 0.09215415 0.035733636
0002f0 38 40 d1 3a e5 3d 1d 3d ca 38 02 3d 2b 7f 47 bc
       0.0015964573 0.038389105 0.03179244 -0.012176315
000300 84 4a dc 3c 55 d4 a3 3d d5 0c 36 3c 00 2c 6a 3d
       0.026891 0.079994835 0.011111458 0.057170868
000310 9e b9 c3 bc 03 8f 89 bb 3d cc 5b 3d 12 48 d5 3d
       -0.02389222 -0.0041979565 0.053661574 0.10414137
000320 f8 a8 e6 bb 19 02 73 bd 2b 64 1c 3d 5e a6 c7 3d
       -0.0070391856 -0.059328172 0.038181465 0.09748529
000330 31 d9 b1 bb 96 ce b4 3b e3 bd c2 3b ed 33 08 3d
       -0.0054275026 0.005517791 0.0059430464 0.033252645
000340 61 a9 1a bd 11 f5 00 3c 9b 00 28 3d d8 a4 18 3d
       -0.03775919 0.007870928 0.041016202 0.037266582
000350 95 26 22 3c 65 eb 88 3d bf 27 f8 ba 2b ad 42 3d
       0.009896894 0.06685523 -0.0018932744 0.047528427
000360 21 6f 54 3d e4 38 1c 3d e1 2e a1 3d fd 98 01 3d
       0.051863793 0.038140193 0.078702696 0.03164004
000370 d9 e2 db 3c 32 88 df bc 41 d8 2f 3d 73 05 17 3d
       0.026841568 -0.027286623 0.042930845 0.03687043
000380 48 0b b7 3d 16 b7 69 3d b1 77 40 3d b4 3f 67 bb
       0.089376986 0.05705937 0.046989147 -0.0035285773
000390 a0 01 11 bd 99 18 8c bc c7 e4 a0 bc 92 b6 96 3c
       -0.03540194 -0.017101573 -0.01964034 0.018397603
0003a0 62 df af bc 24 b7 89 3c 9e 9b c9 3c 73 88 9f bb
       -0.021468822 0.016810961 0.024610337 -0.004868561
0003b0 66 52 fd 3b 3f 2f cc bc 8e 42 5e 3c d6 6a 7c 3d
       0.00773077 -0.024924872 0.013565673 0.061625324
0003c0 08 8d 32 3d de 79 fd 3c 81 cc 3f bd 59 72 41 bd
       0.04359153 0.0309419 -0.04682589 -0.04722819
0003d0 fc e9 0f bb eb 34 32 bd 08 2c 07 3c f8 a2 0f bb
       -0.0021959534 -0.043507498 0.008250244 -0.0021917205
0003e0 ef bf 8b 3c 06 e3 7a 3a 63 ac 25 3d 64 9f f5 3c
       0.017059295 0.00095705723 0.040447604 0.02998323
0003f0 b4 8a ec 3a 47 df 64 3d bb 83 09 3d 0b 25 2f bc
       0.0018046708 0.055876996 0.033572894 -0.010689984

model.2.bias f4 [64]
000000 3b dd a3 3b cc 33 81 3d c9 6e fc 3b 5c bb 1f bd
       0.005000738 0.063087076 0.0077036363 -0.03899704
000010 f2 56 03 3e 98 1d 2f 3e c7 e2 2c bd 91 69 8a 3d
       0.12826136 0.17101133 -0.04220846 0.067584164
000020 d8 5a 32 3e 97 be ba bc 11 d2 32 3b 53 92 3b be
       0.17417467 -0.022795958 0.0027285854 -0.18317537
000030 c8 87 1d bd 29 e7 64 3d 15 86 f2 bd f6 71 07 3d
       -0.03845957 0.055884514 -0.1184198 0.033067666
000040 bb e8 36 be 88 f1 28 be 15 5d 9e bd b2 c7 42 3d
       -0.17862217 -0.16498387 -0.07732598 0.047553726
000050 1b 94 1c bd 83 c0 5d 3d b2 17 03 3c 67 5a 65 3d
       -0.038227182 0.05413867 0.008001255 0.055994418
000060 e1 fd f4 bd 48 31 8d 3c fa d1 08 3c c3 02 dd 3b
       -0.11962486 0.017235413 0.008350844 0.006744714
000070 71 2e b5 bd c5 d0 21 3e 4d bf 23 bc d1 10 9b bc
       -0.088467486 0.15802296 -0.00999434 -0.018928917
000080 8b 62 f0 bd 61 e6 0a 3e fa 19 fe 3b 2c b0 77 bd
       -0.117375456 0.13564445 0.0077545615 -0.060470745
000090 ca 25 87 3d f0 fe 1a 3d 3d 31 8e bb 6a b8 88 bd
       0.065990046 0.037840784 -0.0043393658 -0.06675799
0000a0 bc e4 92 bd 33 8e 29 bd 26 71 aa 3c 81 28 17 3e
       -0.07172534 -0.041395377 0.020805907 0.14761545
0000b0 35 87 12 3d bf a9 88 bc b1 58 11 3e ef fd 7d bd
       0.035773475 -0.016682504 0.1419399 -0.062009748
0000c0 7e 62 b6 bc ae 4d fe 3d d9 ff fe bc 94 56 db bd
       -0.022263762 0.1241716 -0.031127857 -0.10709873
0000d0 25 38 ba 3d 94 67 72 bc 8c a3 ee 3d 8b be 20 3c
       0.0909274 -0.014795203 0.11652288 0.009811054
0000e0 42 66 b8 3c 3b 99 04 3e bb c1 4b bc 0f 36 71 bb
       0.022509698 0.12949078 -0.012436326 -0.0036805903
0000f0 b1 f5 11 bd 4e 07 83 3c f5 5b 1f bd e0 4f 5b 3d
       -0.0356347 0.015994694 -0.038906056 0.05354297

model.4.weight f4 [5, 64]
000000 44 8d 6d bd dc d1 25 3d 0a 27 43 bc 8b 64 b4 3d
       -0.05799605 0.04048334 -0.011911163 0.088082395
000010 48 8c 89 3d 2a a5 0b bb 7e 3c 70 bc 27 f3 06 bd
       0.0671621 -0.0021308162 -0.01466286 -0.032946732
000020 51 6d bc 3c 9f 7e ee bb d3 21 02 3d ab 37 25 3c
       0.023001345 -0.007278278 0.03177054 0.010084073
000030 8e e9 aa 3b 85 4a 72 3d 8c f2 24 bd b6 e8 15 3c
       0.00521583 0.0591531 -0.040270373 0.009149721
000040 66 20 1c bd 75 20 26 bd 31 ff 38 bc c5 41 75 bd
       -0.038116835 -0.040558297 -0.011291311 -0.059877176
000050 b1 18 12 bd ce 6e d5 38 03 c8 8e 3c 30 18 35 bc
       -0.03566808 0.000101772705 0.017429357 -0.01105313
000060 90 38 11 3d fb 57 a0 3c 04 99 84 3d 3c 36 cd bc
       0.035454333 0.019573202 0.06474498 -0.025050275
000070 0d eb 26 3c d5 19 b8 bd 3a 24 2d 3d 35 94 10 bd
       0.010187876 -0.08989302 0.042270876 -0.03529759
000080 70 e5 22 3d 79 59 2c 3d 4c 52 b2 bd dc 68 e5 bc
       0.03976959 0.042077515 -0.08707103 -0.028004102
000090 30 df f5 3b 34 ee c7 3c 2c f8 8f bc 1f 09 6e 3c
       0.0075034127 0.024405576 -0.017574392 0.014528542
0000a0 b6 5e 92 3b 69 18 1d bd 26 86 6f bd 45 a1 66 3d
       0.004466857 -0.038353357 -0.058477543 0.056306142
0000b0 32 d7 2a bd ec e8 98 3c 81 c3 aa ba dc f5 a9 3c
       -0.041709132 0.018665753 -0.0013028235 0.020747118
0000c0 db 97 09 3a 55 43 c7 3d 49 a3 91 3c 61 58 12 3d
       0.00052487635 0.097296394 0.017778056 0.035728816
0000d0 13 63 67 3d 0f 8b 60 bd 2c eb 2a 3c 4c bf 51 bb
       0.05649097 -0.054820117 0.010432046 -0.003200489
0000e0 aa 6e 32 bc 5d b6 4d 3a e1 66 3e bd b5 00 8f 3d
       -0.010890642 0.00078473036 -0.04648483 0.06982557
0000f0 71 e0 07 bc 54 ab 2e bc 61 55 40 bd 7b 50 22 3d
       -0.008293257 -0.010660965 -0.046956424 0.039627533
000100 56 c1 e6 bd 25 b9 89 bd 1e 84 da 3b c1 31 93 3c
       -0.11267345 -0.06724767 0.0066685816 0.01796806
000110 33 a6 ee bc 19 34 01 bd 93 2d 37 3c ac 1f 2b 3d
       -0.029131984 -0.031543825 0.011180299 0.04177825
000120 05 d4 5e 3c 4b 50 87 bd 7d e6 6e 3d 03 20 27 3d
       0.013600354 -0.066071115 0.05832528 0.040802013
000130 0c c2 81 3d 13 c0 96 bd cc f8 9e 3d 16 88 44 3d
       0.0633584 -0.07360854 0.07762298 0.047981344
000140 f1 48 90 3d 12 23 58 bd 68 ee 16 bd a3 7a 58 3d
       0.070451625 -0.05276782 -0.036848456 0.05285133
000150 77 d3 d0 3d 74 55 b0 3c 9b 5e 3c 3d 0c a7 7b 3c
       0.10196584 0.021525122 0.04598866 0.015359651
000160 da a1 47 be 3a ee 2d 3d 9f e4 25 3c b0 d4 82 3d
       -0.19495335 0.04246352 0.010125308 0.06388223
000170 38 ea c0 3d a6 2b 2c 3d 58 60 9e 3d 02 6f 3d 38
       0.09419674 0.042033814 0.0773322 4.5164496e-05
000180 11 8c 1f 3b 2a 87 a5 3b da 69 9c bb c2 58 88 bc
       0.002434496 0.005051513 -0.0047733607 -0.016643886
000190 57 77 32 3c cc 80 18 3d f1 f4 3e bd a7 2d 0a 3c
       0.010892711 0.037232205 -0.046620313 0.008433736
0001a0 f2 86 13 ba 86 28 84 bd da ca 19 bd 26 f4 22 bd
       -0.00056277134 -0.06453042 -0.03754697 -0.03978362
0001b0 9c ed b4 3c 2b 4d 63 3d 70 d9 87 bd 9f 9d b4 bd
       0.022085957 0.055493515 -0.0663327 -0.08819126
0001c0 92 76 9e bd a9 03 5e 3d 08 4a b9 bc 96 4f 43 bd
       -0.07737459 0.05420271 -0.022618309 -0.04768332
0001d0 da b0 ad bd 4a cf 63 bd 70 2d a7 3c 4b 16 bc bb
       -0.084809974 -0.055617608 0.020407408 -0.005739962
0001e0 d9 aa 17 bd a4 42 10 3a c6 ff b8 bc 02 20 b1 3c
       -0.037028167 0.0005503094 -0.0225829 0.021621708
0001f0 4a bd 12 bd 04 24 43 3d cb ae c2 3d 5a a7 d0 bd
       -0.03582505 0.04764177 0.09505995 -0.1018817
000200 8a bf 78 bc 9a 49 9d bb d0 a0 83 3c ba cf b5 bd
       -0.015182385 -0.0048000338 0.016067892 -0.08877511
000210 4c 64 c9 bd 26 5d 96 bc e8 09 ae 3c 98 cd 87 3d
       -0.09833583 -0.018354964 0.021244958 0.06631011
000220 e1 e3 af bd b9 be 29 bd e3 03 2f 3b c0 c2 6e 3a
       -0.08588386 -0.041441653 0.0026705198 0.00091079995
000230 c2 a3 42 3d 92 39 9c bc 6d 5a 28 bd 01 b2 a7 3c
       0.047519453 -0.01907042 -0.04110186 0.020470621
000240 5e fc 3e 3d c8 55 97 bb 0a 9b 61 bc 1c 8f d8 3d
       0.046627395 -0.00461838 -0.013769874 0.10574171
000250 25 79 f3 3d 03 69 81 3c 39 02 60 3c 29 b3 8f 3c
       0.11888341 0.015797144 0.013672405 0.017541485
000260 0d 93 06 bd b1 07 c1 3a 1e 8b 89 bd da 85 35 3d
       -0.032855082 0.0014727024 -0.067159876 0.044317104
000270 0e 60 0f 3d 63 49 96 3c af 60 ca 3b 30 f1 15 3d
       0.035003714 0.01834554 0.0061760764 0.036606967
000280 cd 65 f2 bd b6 50 8a bb 34 26 bd 3d 58 65 97 3c
       -0.11835823 -0.0042210473 0.09235802 0.018480942
000290 2d 4a d2 bb 63 99 bb bb 07 94 3b bc 60 1a 22 bc
       -0.006417534 -0.005725072 -0.011448867 -0.009893984
0002a0 2c d0 b1 bb 50 03 18 39 84 c2 0e 3d 57 5e 60 bd
       -0.0054264273 0.00014497084 0.034853473 -0.05477747
0002b0 b0 8c 89 3d 16 c7 92 3c 8b d6 68 3c 0f a5 a7 bd
       0.06716287 0.017917197 0.014211307 -0.08185779
0002c0 2e 7f 64 bd 92 cf b7 bd 17 74 14 bd f6 aa 1d bc
       -0.05578535 -0.08975138 -0.036243524 -0.00962328
0002d0 1b 6f 81 bd a4 c6 bd 3c 27 ee 5d 3b c4 54 05 bb
       -0.0632002 0.023166008 0.0033863874 -0.0020344714
0002e0 f2 61 41 bc 63 19 db bd 82 9b 21 3d 4b c4 77 bd
       -0.011803137 -0.106982015 0.039454944 -0.060489934
0002f0 4b f3 86 bc c4 21 28 3d b2 69 00 3e dc bc f4 bd
       -0.016473433 0.041047826 0.1254032 -0.119500846
000300 7c 84 f4 bc 0c 05 1b 3e 16 44 e1 bd 6e 6f 06 be
       -0.02984833 0.15138644 -0.109993145 -0.13128445
000310 15 be d6 3d 8e fa 79 3d 54 40 99 bd d8 05 c0 bc
       0.10485474 0.061029963 -0.07482973 -0.023440287
000320 54 10 29 3e 7e 02 1f be d8 7b ee bd f9 4b 11 bf
       0.16510135 -0.15528294 -0.11644715 -0.5675655
000330 ca c7 b3 3e b5 13 92 3c 46 9a b7 3e eb 96 1e be
       0.35113364 0.017831663 0.3585989 -0.15487258
000340 1e 4b f7 be c3 eb ee be 41 12 fc ba 22 5f 16 3c
       -0.48299497 -0.46664247 -0.0019231514 0.009177955
000350 af ff ac 3e f4 07 e7 3c 89 5c f0 3c 60 8f a1 be
       0.3378882 0.028202035 0.029341 -0.315547
000360 e6 a3 ec 3e f8 9f 13 3c 06 f2 a9 bd 6b 13 c9 bc
       0.46218795 0.0090103075 -0.082981154 -0.024545392
000370 c8 7e cd be 98 a8 23 3e aa 50 36 bd b5 c7 ca bd
       -0.4013579 0.15982282 -0.04451052 -0.09901372
000380 f2 ef 6f 3e 8d bb 58 3e 07 9b 3c bd 40 8f fe bc
       0.23431376 0.21165295 -0.046046283 -0.031074166
000390 6c 91 80 be 58 52 63 be ed dc 2a 3d 78 04 e3 3c
       -0.25110948 -0.2219938 0.041714597 0.027712092
0003a0 bc b8 28 3c f1 fd 01 3e 77 c3 1f be 0e 0f 59 3e
       0.01029795 0.12694527 -0.15601908 0.21197149
0003b0 d4 d4 72 3e 67 0a b5 bb 79 0c b5 3d d6 2d 50 3e
       0.23714 -0.0055249217 0.088402696 0.20329985
0003c0 0d ac 8f bc de 62 0d 3d ea d9 b2 bc 9a 8f f6 be
       -0.017538095 0.034518115 -0.021832425 -0.48156434
0003d0 49 0a d5 3d 0a 3c 8d 3d a3 ab dd 3b e6 26 5d bd
       0.10402352 0.06896217 0.0067648455 -0.053992175
0003e0 73 99 58 3d 95 a3 65 3c 8d b6 16 3e ad 2f c9 3d
       0.052880716 0.014016052 0.14718075 0.098235466
0003f0 88 0c 3c bd 63 6b 44 be 4d 76 92 3e 31 65 cb 3d
       -0.04591039 -0.1918159 0.2860588 0.0993141

model.4.bias f4 [5]
000000 28 33 01 bd 08 b7 a6 3c 90 36 6e 3d aa 5a 21 3e
       -0.031542927 0.020350948 0.058157504 0.15757242
000010 66 26 11 3e
       0.14174804
